flask/models/cnn_model.pth (torch, 910744 bytes, 8 tensors)

conv1.weight f4 [32, 1, 3, 3]
00000000: 91e7 f23e 3bfa 983f f1c6 ff3e 9483 26be
00000010: cb2b 933e 7d07 493f f734 77bf 86d6 bbbf
00000020: 66a9 01bf f33b c4bf 3e61 97bc a086 373f
00000030: bc89 99be 9d2d 983e 3465 633f e194 f9be
00000040: 1f98 173e aca0 493f 8dba bdbe ab23 ed3e
00000050: fd41 033f 2233 223e f1e3 873f 27bc 053f
00000060: ab0f a2bf 5871 29bf a5ac 9a3e 3a84 35bf
00000070: d76b d2bf ccd0 80bf 2c5d d1be adab 04be
00000080: f251 483f 0ce7 363f 3cf9 b23f 53c8 a43f
00000090: 7986 9abe 220c b13e 5911 1d3f 186e 883b
000000a0: 4c66 133f 2e90 143f ef91 cd3e 57b6 3f3d
000000b0: 6b63 4dbf 3f67 663f 740e 14c0 fff0 c6bf
000000c0: 1380 2d3f 8fdd 8dbf a7e4 563d 6336 e93f
000000d0: 15f9 113f b7c0 873f 955a 97bd 7f63 b93f
000000e0: 1263 b93f 0ce8 dfbe f454 61bf b8b5 623f
000000f0: 2644 5cbd 8e28 08c0 e72d 7bbe 7e6d 3c3f
00000100: 697c 933f 4adf 503f cbb7 bb3e b226 153e
00000110: 5d35 1abf 3902 d0be d0fa a3bf b915 6cbf
00000120: 6eeb 273e 48d4 3ebe c62e 98be 3075 ac3d
00000130: d6d4 cc3d 9b18 52be 2b1e 42be cf1a 9abe
00000140: 06e5 a33d cf26 cbbd 6701 f0be aa79 eabf
00000150: 6360 75be 5354 48bf 15c1 97bf b014 ab3f
00000160: fcfb cd3f ffb0 843f d1e0 aa3c ac01 5fbe
00000170: 6778 a3be 91fa 88be 0c1a 8cbe 09b2 77be
00000180: 9139 943e 5331 e03d 1c67 7ebc 9f05 ab3d
00000190: 12cb 813e 56c3 b33e b941 003f bdc8 033f
000001a0: fb56 293e 595f 88bf ee62 6d3e efda 8e3e
000001b0: 2bf3 ce3f edce bd3e c14f 12bf 8e60 9d3f
000001c0: 108b c83e 799b c4bf 9c3f 733f 5b5b 3cbf
000001d0: 5634 c7bf 3de3 cdbe cee7 c0bf bfdb b0be
000001e0: 7590 f7be 02f4 f6be a7ba d83e 6efb 473e
000001f0: 2948 2c3f 3413 9c3f f27b 50bf 9ddb bbbe
00000200: d8b5 b53e 3e56 b33d 3039 213f 37d0 4f3e
00000210: 4fe6 773e 90f9 203f 7afb 073f 709c 09be
00000220: 9ab3 cdbe 95f4 d9be cef7 2bbe 82d5 07bf
00000230: 4c3e 47be c1d1 bdbe 86ad 10be cd5f e5be
00000240: 3eef 9b3e 2232 653f 00cb 283f bcad 96bf
00000250: a2e4 b73c a8a1 8f3f af6d bbbf 5748 e9be
00000260: 3a0f 143f 90c6 ab3e 5ce2 423f f5ab 353f
00000270: 00fd 733d 4f7d 4b3f 03ae 3c3f 3854 e1be
00000280: a1a1 62bf d956 99bf 4079 4fbe e0c7 e03d
00000290: 7ed2 a7be 30fe 34be 36da d0bd ce07 903e
000002a0: f311 233e 2675 833e c884 7cbe 5a7a 84be
000002b0: a892 a5bc 63c0 e139 eaab 07be 0c9a 31be
000002c0: 22f9 593e 81ae 85bb d24b a63e 8a4d 7ebd
000002d0: ca73 af3f 5462 0ebf aba3 d63e 8e27 173f
000002e0: 32b5 0dc0 9ca3 5e3e bb8b 473e ff65 f3bf
000002f0: b75b 653f 901f 1b3e 3197 503e 3649 1d3d
00000300: c668 e03e 3057 223e 9623 933e 0ca7 e1be
00000310: f8f9 c43e e09d 603d 6c7c e43f 8c4d adbd
00000320: b374 acbf 4dc3 ab3f 12f5 e2be 0a5d aabf
00000330: 75be 843f 3188 55bf 6e34 e2be 3657 cb3c
00000340: b637 103f c760 e93e bf32 123e 205d 873e
00000350: aafb a63e 6354 d7bc edfb 643d eb8a 863d
00000360: 263d b8bf 0c00 eabe 88cb 9f3e 6bc7 89bf
00000370: 4a2e 353e 38db c03e 9dab ae3e 2f13 5c3f
00000380: a6d7 833f 29f2 82bf da1c 473f 18f3 903f
00000390: 8998 6bbf b20e a9bd acb6 8c3f 773c 48bf
000003a0: 1c87 aabe ed16 ff3d 3277 c03d ac94 0c3f
000003b0: 0bae 013f e82b 543e 7616 c13e 734f b33e
000003c0: edbd 1d3e 325d 843c 5236 b6be f7b1 66bf
000003d0: 741f 293e fe94 7d3f 3751 9fbf 5097 b7bd
000003e0: 269d 713f 405f 17bf e819 8c3a 2a00 f93e
000003f0: bfcf 003f ef34 e6bf 1ba7 1abd 67da 8c3c
0.47442296 1.1951364 0.49956468 -0.1626113 0.2874435 0.7852705 -0.9656519 -1.4674842
-0.50649107 -1.5330795 -0.018478986 0.71689796 -0.29987895 0.297223 0.888263 -0.48746398
0.14804123 0.7876079 -0.3705639 0.46316275 0.51272565 0.15839818 1.0616437 0.5224022
-1.2661031 -0.66188574 0.30209842 -0.70904887 -1.643916 -1.006372 -0.40891397 -0.12956114
0.7825004 0.714463 1.398231 1.2873634 -0.3018072 0.3457957 0.61354595 0.004163515
0.5757797 0.580325 0.401504 0.046804752 -0.80229825 0.9000129 -2.3133821 -1.5542296
0.6777355 -1.1083239 0.052464154 1.8219723 0.57020694 1.0605687 -0.07390324 1.4483489
1.4483359 -0.43731725 -0.88020253 0.8855853 -0.05377593 -2.1274753 -0.24529229 0.7360457
1.1522342 0.8159071 0.3666366 0.14565542 -0.60237676 -0.40626696 -1.2810917 -0.92220646
0.16398403 -0.18635666 -0.29723185 0.08420789 0.10001533 -0.20517199 -0.1895682 -0.30098578
0.08002667 -0.099195115 -0.4687607 -1.8318379 -0.2396255 -0.7825367 -1.1855799 1.3365688
1.6092525 1.0366515 0.020859154 -0.21777982 -0.31927797 -0.26753667 -0.27363622 -0.24189009
0.2895017 0.10946908 -0.015527513 0.083506815 0.25350243 0.35109967 0.50100285 0.5147818
0.16537087 -1.0654098 0.2318227 0.27901408 1.6167959 0.37071934 -0.57152945 1.2295091
0.39168596 -1.5359946 0.95018935 -0.735769 -1.5562847 -0.40212432 -1.5070741 -0.34542653
-0.483524 -0.48233038 0.42329904 0.19529507 0.6729761 1.219336 -0.81439126 -0.3669099
0.35490298 0.08756684 0.62977886 0.20294271 0.2420895 0.628808 0.531181 -0.13438582
-0.40176088 -0.42569414 -0.16793749 -0.5306016 -0.19457358 -0.37074092 -0.14128694 -0.44799653
0.30455965 0.8952962 0.65934753 -1.177177 0.022447888 1.1221209 -1.4642848 -0.45563003
0.57835734 0.3354993 0.76126647 0.7096551 0.05956745 0.7948808 0.7370302 -0.44009566
-0.88527876 -1.1979629 -0.20261097 0.10975623 -0.3277778 -0.1767509 -0.101978704 0.28130955
0.15924816 0.25675315 -0.24660027 -0.25874597 -0.020211533 0.00043058684 -0.13249174 -0.1734392
0.21286443 -0.0040796404 0.3247972 -0.062085666 1.3707211 -0.55618787 0.41921744 0.5904473
-2.2141843 0.217421 0.19486897 -1.9015502 0.8959307 0.15148759 0.20370175 0.038399898
0.43829936 0.15853572 0.28738087 -0.4407276 0.3847196 0.05483806 1.785047 -0.084620565
-1.3473114 1.3418976 -0.443276 -1.3309643 1.0370623 -0.83410937 -0.44180626 0.024821859
0.5633501 0.45581648 0.1427717 0.26438236 0.3261388 -0.026285356 0.055904318 0.06569465
-1.4393661 -0.4570316 0.3120997 -1.0763983 0.17693439 0.3766725 0.34115306 0.8596677
1.0300186 -1.0230151 0.777784 1.1324186 -0.92029625 -0.08254756 1.0993247 -0.7821726
-0.33306205 0.124555446 0.09397735 0.54914355 0.50656193 0.20719874 0.3771245 0.35021552
0.15404482 0.01615772 -0.35588318 -0.901153 0.16515905 0.9905547 -1.244666 -0.089644074
0.94380414 -0.59129715 0.0010688873 0.48632938 0.50316995 -1.7984904 -0.03775702 0.017193986

conv1.bias f4 [32]
00000000: 5913 34be 9bd1 f3be 69fe 1fbf 9ecd 72be
00000010: 5702 5ebf 734d 84be 131a 80be c663 1fbe
00000020: 305c 8bbe b04b e13d fe36 a2bd 87f6 59bf
00000030: 6552 b5be fe40 8c3e a40b 77bf 83ce b33f
00000040: 6a49 a9be f78d 21bf dee1 89be ee4b 9dbe
00000050: c31b 763e 5676 85bf 53a1 5fbe e29f 82bf
00000060: fb73 aebd 9593 47be c7bc abbf 6ffd 173d
00000070: 3723 aa3e d4d6 a3be 67a3 a9be 495b 95bf
-0.17585506 -0.47620854 -0.62497574 -0.23711249 -0.8672232 -0.2584034 -0.25019893 -0.15565404
-0.2721877 0.11000764 -0.07920645 -0.85141796 -0.35414425 0.27393335 -0.9650214 1.4047397
-0.33063823 -0.63107246 -0.26930135 -0.30721992 0.24034028 -1.0426738 -0.21838884 -1.0205042
-0.08518215 -0.19489892 -1.3416985 0.037106927 0.33229992 -0.31999838 -0.3313248 -1.1668483

conv2.weight f4 [64, 32, 3, 3]
00000000: e87b 3f3d 0a78 db3d f3d3 6bbd 4d5f 6e3d
00000010: 29ca 873d 6193 f2bc fe38 1f3d f624 3a3e
00000020: acef 533d 7433 08bd 9339 9bbd b5d7 b1bd
00000030: 425f bf3c c868 503b 8c81 56be 19f8 6bbe
00000040: eeba b43d 5451 90ba 3637 8b3d e754 4c3d
00000050: 1791 fcbd b204 46bd 0076 3e3e 2e9f ee3c
00000060: 0d86 06be b844 0abb 7f93 5bbd 4ee5 29be
00000070: c021 a1be ea42 a2be 1a62 eebd 3f94 c8be
00000080: ffbd 9ebe 5848 7cbe 3cfa 56be 8e4d e9bd
00000090: 9d97 db3d c2ef fd3d baea 42bd e31d 983c
000000a0: f14e 3e3d 0b0a 1abd 4104 15bd 9d7e 5ebe
000000b0: e419 3ebe dec5 bebe 467d 61be 0ab1 c4bd
000000c0: 2679 973d d540 afbe 5b73 87bd 9f3f 023d
000000d0: 5f56 85bc a363 d0bd df6c 283e e999 7abb
000000e0: 4d17 0a3e fecd 8f3d de01 653e be4f e3bd
000000f0: 846e d4bd 2d98 523e 647d 9fbc 6306 ba3d
00000100: b8ba 3d3c 326d debc 60bb 943d f943 283e
00000110: 8614 b63d 3319 18bc cb37 c43d 8068 9b3a
00000120: 5c44 b03c 09f6 87bb eaae 013d 5c1c d13c
00000130: e01f 61bd 6e94 36bd a1c1 8a3c 991a 08bd
00000140: 0b7f 15bd 3911 9bbe 573a ebbd 1ed0 29be
00000150: 3316 713d 2d71 75be d3b9 c73d c0b6 9f3b
00000160: 6cd5 e13d 4ada db3d feaa 163d 5938 c0bc
00000170: fa7a 383d 7935 54bd b1fd 263d 4643 1a3d
00000180: 24eb 273d e756 b53c 5eec ad39 da7b 033e
00000190: fcc8 283e 03eb 88bd f86a b4bb 281b 993d
000001a0: 6a58 cbbc b104 dbbd 8d34 a1be f6e2 e2bd
000001b0: 5483 2fbe 04de c33c 1772 06bd a201 c93d
000001c0: 4384 0b3d d2f6 263e a763 463d 997b 2f3e
000001d0: 1629 d93c 2c28 afbd fe41 99be f4c4 87be
000001e0: 53d9 3abe 241f 8abe 74aa dcbd c115 76bd
000001f0: 1321 82bd 0786 78bd 1622 a03d 3242 d83d
00000200: b553 dd3c 8d9e 3fbd 46e5 07be 5af2 a2bd
00000210: faba d0bd cbc4 59be 180c 18be 24a6 1c3c
00000220: 396e c7bd edc9 7fbd 2977 053d 62f9 153d
00000230: b7dd 9cbc bc0f 173e a267 843e 8b6c e03d
00000240: aaef fd3d a8cf b0bc bdd5 0abd e947 b63d
00000250: 8919 c83d 20d2 64bd b321 e3bd 9f88 0b3e
00000260: 1a10 333d daef e13d cb18 4dbd 7731 cdbd
00000270: e604 913d 84dc 0b3d b512 863c 450b ecbd
00000280: cf00 95bb 68d5 09be f309 0dbd 7379 263d
00000290: fab2 6c3d 9009 99bc 123e 163d 1bf3 873c
000002a0: ce62 6dbd dc14 7abb 2e07 b03c 57fc 1d3c
000002b0: abda 05bd e2ca 0c3b 0247 e03b ac1f aa3c
000002c0: b7fa a43c 3be8 243d 6f42 4d3d 17bc 153d
000002d0: 302f a8bd 0ffc f9bd abb2 c43b 6051 c33d
000002e0: ba9f ee3d c328 93bc 2e24 b53c 9195 0e3d
000002f0: 11d5 6ebd b694 7bbd 054e 533e d14a 193c
00000300: 3bd5 02bb 0f97 233e c3ca 813d 1700 f4bb
00000310: 1004 43be 1042 5fbe f96a 87be 88a7 5cbd
00000320: 7244 213d ce89 8d3d 7fe4 d53d 6b70 fe3d
00000330: cfee 263e bc34 403e 50f5 70bd 45f2 d43d
00000340: 5787 b03d c042 f13a 9aeb 933d 18ba d43c
00000350: 2e1d 9b3c fa57 89bd 78d3 0bbe db98 69be
00000360: cbaa aabd d968 70be 636c 6ebe cbe3 72bd
00000370: bf13 eabd 7f42 53be 296f 1fbe 9b7b 1ebc
00000380: ca25 743c 6a48 173d 707a 1abd 29f7 25bd
00000390: 3516 873e fe3e 143e 48da 33be b103 a6bd
000003a0: aad7 4a3d b43d e73d c3cf e13b 55ec b63d
000003b0: 4510 a53c b342 d2bc 355c 99bd 7e25 b9bc
000003c0: ae15 5dbd befe 4abe e03f 6ebe a93b ff3d
000003d0: dfef 26be 606b 03be 6bc9 343e 50b0 d33d
000003e0: a7f6 70bd 352b 02be 2b27 1b3c 5b1b 933d
000003f0: 11c4 2ebd f392 9ebe 1ad8 64be e09d 323d
0.046749026 0.10716255 -0.057575177 0.058196355 0.06630356 -0.029611291 0.03887271 0.18178162
0.05174224 -0.033252195 -0.07579341 -0.08683721 0.023360852 0.0031800736 -0.20947856 -0.2304386
0.088247165 -0.0011010566 0.0679764 0.049885657 -0.12332361 -0.04834432 0.18599701 0.029128637
-0.13137074 -0.0021098088 -0.05360746 -0.16591379 -0.31471062 -0.31691676 -0.11639805 -0.39175603
-0.3100433 -0.24636972 -0.20993894 -0.113917455 0.10722277 0.12399246 -0.047587134 0.018568939
0.046462003 -0.037607234 -0.03638101 -0.21727987 -0.18564564 -0.37260336 -0.22020444 -0.0960408
0.07396154 -0.3422915 -0.06613799 0.031798955 -0.016276537 -0.10175254 0.16447781 -0.003823871
0.13485451 0.07021712 0.22363994 -0.11099194 -0.10372642 0.20565863 -0.01946897 0.090832494
0.011580162 -0.027151678 0.072623014 0.1643218 0.08890633 -0.009283352 0.09580954 0.0011856705
0.021516971 -0.0041492027 0.03166095 0.025526218 -0.05496204 -0.044575147 0.016938033 -0.03322849
-0.03649811 -0.30286577 -0.11485737 -0.16583297 0.05885906 -0.23968954 0.0975224 0.0048740804
0.11027035 0.10734995 0.036784165 -0.023464369 0.045039155 -0.051808808 0.040769283 0.037661813
0.040995732 0.022136165 0.0003317324 0.12840214 0.1648292 -0.0668545 -0.0055059157 0.07475883
-0.024822433 -0.10694254 -0.31485406 -0.110784456 -0.17139941 0.023909576 -0.03282365 0.098147646
0.03406168 0.16305092 0.04843488 0.17136993 0.02650885 -0.08552584 -0.2993316 -0.2651745
-0.18246965 -0.26976883 -0.10774699 -0.06007934 -0.06353965 -0.060674693 0.078190014 0.10559501
0.027017454 -0.046782065 -0.13271055 -0.07956381 -0.10191913 -0.21266477 -0.14848363 0.009561095
-0.0973782 -0.06244843 0.032584343 0.036614783 -0.01914869 0.14752096 0.25860316 0.10958203
0.12399228 -0.021583393 -0.033895243 0.089004345 0.097704954 -0.055864453 -0.11090412 0.13626336
0.043716528 0.11032076 -0.050072473 -0.100192 0.070810124 0.034145847 0.016366342 -0.11525587
-0.0045472155 -0.13460314 -0.034433316 0.040643167 0.057787873 -0.018681318 0.03668029 0.016595414
-0.057955556 -0.0038159406 0.021487799 0.009642682 -0.03267924 0.0021483232 0.0068444023 0.020767055
0.020139081 0.040260535 0.050112184 0.03655633 -0.08212125 -0.122062795 0.006002744 0.095370054
0.11651559 -0.017963773 0.022111978 0.034810606 -0.058308665 -0.06142112 0.20635231 0.0093562165
-0.001996352 0.15975593 0.06337502 -0.0074463 -0.19044518 -0.21802545 -0.264488 -0.053870708
0.039371915 0.0691105 0.10443973 0.12423786 0.16302036 0.18770117 -0.0588277 0.10397772
0.08619564 0.0018406734 0.07222672 0.025967643 0.018934812 -0.06706233 -0.13654888 -0.22812216
-0.083333574 -0.23477496 -0.23283534 -0.05929927 -0.114295475 -0.20630835 -0.15569748 -0.0096730245
0.014901588 0.036934294 -0.03771442 -0.040518913 0.2638413 0.14477155 -0.17563736 -0.08106173
0.04952208 0.11291066 0.006891222 0.089317955 0.02014936 -0.02566657 -0.0748829 -0.022600885
-0.053975753 -0.19823739 -0.23266554 0.12462551 -0.16302441 -0.12833929 0.1765496 0.10336363
-0.058828976 -0.12711795 0.009469788 0.07182952 -0.042667452 -0.30971488 -0.22348061 0.043607593

conv2.bias f4 [64]
00000000: 522e 9bbe 2118 323e 0609 863c a729 ba3c
00000010: 0fb2 e83e d614 c83e 1162 043f 67b5 14be
00000020: 03cd 603d ccb9 ab3d 760b 18bf c276 eebe
00000030: be1c 763e 33d0 ffbd f6ea b1bd f9eb a33e
00000040: 62d0 80be 5d85 2fbe 5c47 a9bd 7171 3a3f
00000050: e052 823d 5494 363e c618 033f 84c1 3dbd
00000060: c020 64bd 3966 1f3b b472 6dbe fda4 51be
00000070: 15fc b6be 266e dcbe 8090 0a3d 3662 10be
00000080: bf82 fdbd f84f 0fbe 6fd3 6cbe 7350 0b3d
00000090: a1a3 79bd c694 14be dea2 90be a627 963d
000000a0: 4c96 4e3f 691b 7e3d 8520 60be a702 233f
000000b0: f665 c1be f8d3 db3e 7bb8 11bc bbb3 133e
000000c0: 889f 18be 689a 30bc 797e febe 250e 84bd
000000d0: ac53 73bd 36a9 0cbe 6934 bebe f697 9c3d
000000e0: d368 153e 94a5 d13d a04a a0bd 8b7f c8bd
000000f0: ccc6 08be 1b07 853d b392 bebc 9184 933e
-0.30308777 0.17392017 0.016361725 0.02272494 0.45448348 0.39078397 0.5171214 -0.14522325
0.054883014 0.08385047 -0.5939249 -0.4657498 0.24034402 -0.12490883 -0.08687393 0.3201597
-0.25158983 -0.17140718 -0.08265564 0.7282935 0.063634634 0.1783002 0.51209676 -0.04632713
-0.055695295 0.0024322404 -0.23188287 -0.20473094 -0.35739198 -0.43052787 0.033829212 -0.14099964
-0.123784535 -0.1399535 -0.2312753 0.03401227 -0.060947064 -0.14509878 -0.28249258 0.07331781
0.80698085 0.06203786 -0.21887405 0.6367592 -0.37773103 0.42935157 -0.008894081 0.1442403
-0.14904606 -0.010779001 -0.49705866 -0.0644801 -0.059405968 -0.13736424 -0.3714936 0.07646172
0.14590769 0.1023666 -0.078267336 -0.09789952 -0.13357085 0.06495496 -0.023263311 0.28812078

fc1.weight f4 [128, 1600]
00000000: 8a03 32bc c870 7739 79d9 34bd 92b5 0d3d
00000010: 26fa 513d d50c ef3c a7c3 17bc 4892 3dbd
00000020: c44f 53bd 7ba4 22bc 9384 f6bc d4a9 8bbd
00000030: 7398 8ebd 92b5 86bd 0499 62bd 826f db3b
00000040: cebc 393c c979 f4bd b65f b7bd 27af 963d
00000050: e4e6 273c 04a4 6bbc 1af9 323b cce9 e6bc
00000060: 6005 bf3c c652 293c 279c aabc d2ca 5abc
00000070: 65b3 f43b 0171 c63c 4b09 07bd 9626 a4bd
00000080: 1fa1 cfbb 8792 793d b802 0dbc 72b1 3dbd
00000090: 4c48 b83c 4f14 c13d cd5e 8e3d ea6b 2ebc
000000a0: 1744 673c af77 013c de16 163c 8087 8bbd
000000b0: 3233 2dbd 7999 063c 19da 89bd a858 e73c
000000c0: be29 433d 0eda 823c 44bc b3bc 3e2f 1bbd
000000d0: d946 9bbd 6b7b 62bd d058 fa3b ae5d 82bc
000000e0: 3a83 853c 9ffe b3bd f95d d8bc 1661 a03c
000000f0: 3bda 77bc 0d90 263e 0ef5 23bc 7a0c dd3d
00000100: 6807 d03c ffc3 42bd 9402 713c f792 f8bc
00000110: fd4d e6bd f3bc 213d b533 25bc 3241 873c
00000120: fb0a 9abb d2db bf3d c8bc 0a3d f991 51bd
00000130: e2c7 33be f9c0 ccbc fdc6 b2bd a71f 9d3d
00000140: ef81 6dbb 2cc6 2dbd 314e 6b3c 1988 f6bc
00000150: 536c 10bd d863 ab3d a913 8fbd 44d5 2e3d
00000160: 75d9 083e f3f9 5cbb 6aff cabb c144 bfbc
00000170: 22a3 af3d b61a 9b3d 9dd7 203d 8702 283c
00000180: 0ecf ae3b 1678 f23d 3ccd 993d 7cd6 17bc
00000190: 4f4d 363d 25c5 823d 185c 243d a2fd 5abc
000001a0: c04c 9a3c 40c8 8b3c bb47 023d 18f4 183d
000001b0: 0e58 53bd 73d5 32bd f8e8 2cbd e39a 413d
000001c0: a315 e73c e9e7 aabd f3da 903d bb05 843d
000001d0: ecd7 fe3c a532 d1bd 7c3a b5bd 197b f13c
000001e0: 2934 ee3d 6907 b9bd a859 bfbd 0759 eebd
000001f0: ebad dcbc b314 563d bd05 b8bc b458 a0bd
00000200: 24be cabd 90e7 193d 7834 0cbd fcce 08bd
00000210: 7002 2fbd cc3a 98bd d244 f7bc 4682 3b3c
00000220: bac3 f7bc 8707 1bbd cf43 fbbc f360 62bd
00000230: d5b5 4d3d 08ba bf3b 8a70 7e3b 6d80 debb
00000240: 4eda c5bc e6c0 573d f40a a43c 0cf0 34bd
00000250: 318d d3bc 8ab9 51b9 900b 853d 5e39 473d
00000260: 6d0a 69bd 6f7f 323d c1aa c4bc ab91 71bd
00000270: b549 9fbd f71b eabd 0ea1 be3c fc88 d9ba
00000280: 74dd c7bd 6acb 3bbd 6320 c0bc 0e54 f2bc
00000290: faf5 15bd 3256 dcbc 6c91 953d 57fd b33c
000002a0: badc 12bd fc5e 08bd dcb0 923c 9080 5d3d
000002b0: f157 50bc 419c b6bc 4d89 e2bc c8d5 5fbd
000002c0: 3a99 1bbe 6a7d dcbd 0303 2bbe b7ba ca3d
000002d0: 943f 6f3d 9759 673c daa6 943d 6202 67bd
000002e0: 1395 703d 087b ea3d 286a eebd bc08 0f3d
000002f0: ea02 a2bd ba70 b2bd 65d2 8d3d b3db 04be
00000300: bba6 623d b096 173e d4ef 95bc 574d 813d
00000310: db2c 003d f5c7 e33c aaef 333d 5247 8bbb
00000320: 21ce 0d3c d7fd edbd 4f7a 80bd a94c 0cbe
00000330: e99f 73bd 785d 503d efc4 90b7 1bb7 97bd
00000340: d842 953c 6cd7 39bc a56b 3fbc 0900 a9bb
00000350: 432d 253d b12f 573c 4452 963c 7b0c 60bd
00000360: dab0 c7bb 9f22 c1bd ac3e aabd 8690 463e
00000370: d252 c33d 82e6 4ebd 6eb6 753d 8646 293d
00000380: 6eec 363e daac cb3c cb87 b3bc 9676 aa3d
00000390: 54d7 613d 95d1 daba 2cc7 92bd 428f c9bd
000003a0: f3e8 413d 2ec5 553d acb1 60bd ab03 f9ba
000003b0: c3e6 10bd 75ff bebc 4a96 f2bc c690 9e3b
000003c0: 14c2 8cbd 0449 d5bd 3928 5fbd d276 cc3c
000003d0: 72e4 24bd 8b18 babb faf6 0ebc 3532 26be
000003e0: 32e7 8d3c 5702 2c3d 8fe9 5fbd a76a a9bd
000003f0: f76f 9f3d 1942 9a3c 2aac aebc bb3e 1fbc
-0.010865102 0.0002359777 -0.04415271 0.034596987 0.05126395 0.029180923 -0.009262956 -0.046282083
-0.051589742 -0.0099269105 -0.030092513 -0.068195015 -0.06962671 -0.065776005 -0.05532171 0.0066966424
0.011336518 -0.11937291 -0.08953802 0.073576264 0.01024792 -0.014382366 0.002730912 -0.028187655
0.023317993 0.010334676 -0.020826412 -0.01335402 0.0074676746 0.024223806 -0.032967847 -0.08015172
-0.006336346 0.060930755 -0.008606605 -0.046311803 0.022495411 0.09427702 0.069516756 -0.010645846
0.014115355 0.00790207 0.009160725 -0.06812954 -0.04228515 0.008215302 -0.06731052 0.028240517
0.04764723 0.015973117 -0.021940358 -0.03788685 -0.075818725 -0.05529348 0.007639982 -0.01591381
0.016297925 -0.087887995 -0.026411997 0.019577544 -0.015127714 0.16265889 -0.010007156 0.10793395
0.025394157 -0.047550198 0.014710087 -0.030343516 -0.11245344 0.039486837 -0.010083129 0.01651058
-0.004701016 0.09368099 0.033871442 -0.0511646 -0.17556718 -0.02499436 -0.0872936 0.07672053
-0.0036240777 -0.04242532 0.014361904 -0.030094193 -0.035259556 0.08368653 -0.06986172 0.042683855
0.13364203 -0.0033718317 -0.0061949985 -0.023348214 0.08576037 0.07573454 0.039268125 0.010254509
0.0053347414 0.11839311 0.075098485 -0.009267446 0.04450732 0.063852586 0.04012689 -0.013366135
0.018835425 0.01706326 0.03180669 0.03734216 -0.051597647 -0.043660592 -0.042214364 0.047266852
0.02820856 -0.083450146 0.07073011 0.064464055 0.031108819 -0.10214738 -0.08849046 0.029477643
0.116310425 -0.090346165 -0.093432724 -0.11638074 -0.0269384 0.052265834 -0.022463674 -0.07829419
-0.09899548 0.03757435 -0.034229726 -0.03340052 -0.042726934 -0.074330896 -0.030184183 0.011444634
-0.030244697 -0.037848976 -0.030671982 -0.05526824 0.050222237 0.005851034 0.0038824403 -0.006790212
-0.024151947 0.052674197 0.020024754 -0.04417424 -0.025824161 -0.00020000912 0.06496346 0.048638694
-0.05689471 0.04357856 -0.024007203 -0.05897681 -0.077777304 -0.11431115 0.023270156 -0.0016596611
-0.09759036 -0.045848288 -0.023452943 -0.029581096 -0.036611535 -0.02689657 0.07303128 0.021971388
-0.035855033 -0.03329371 0.017906599 0.054077685 -0.012716279 -0.022291305 -0.02765336 -0.054647237
-0.1519517 -0.10766108 -0.16700368 0.09898894 0.058410242 0.014120481 0.07258387 -0.056398757
0.05873592 0.114492476 -0.116413414 0.03492044 -0.07910712 -0.08712907 0.06924895 -0.12974434
0.055334788 0.14803576 -0.018302836 0.063135795 0.031292778 0.027805308 0.043929733 -0.0042504454
0.008655102 -0.11620682 -0.062733285 -0.13701119 -0.059478674 0.05087039 -1.7257842e-05 -0.074079715
0.01822035 -0.0113428645 -0.011683379 -0.005157475 0.040326368 0.013133929 0.018349774 -0.054699402
-0.0060940804 -0.094304316 -0.08312735 0.19391069 0.09537281 -0.050512798 0.05998843 0.041327022
0.17863628 0.024862695 -0.021915337 0.083234 0.055136994 -0.001669454 -0.07166895 -0.098417774
0.0473413 0.05219 -0.05485694 -0.0018998286 -0.03537632 -0.02331517 -0.029612679 0.0048390357
-0.06872955 -0.10414317 -0.05448172 0.024959002 -0.040256925 -0.0056791953 -0.008725876 -0.1623009
0.017322157 0.04199442 -0.0546661 -0.082722954 0.077850275 0.018830346 -0.021322329 -0.009719546

fc1.bias f4 [128]
00000000: 1b3c 0abe b8e9 9bbd 2b9e 9c3c 37af 973e
00000010: e359 c1bc 8291 1b3e 7b67 7dbd ec34 8b3c
00000020: 4cbc 0abe 1db1 8a3d c89e 883c bec0 33bc
00000030: 9220 ca3d b73d acbd efe5 95bd 0983 85bc
00000040: 7f7b 363d c7ba 733e 9ecc 003c b728 6dbc
00000050: 0e3f 94bd 4627 abbd 16b0 4dbd 7e64 70bd
00000060: ea36 993e 5581 2c3e b6e6 bfbd b461 a73c
00000070: f1fe 833c 2250 a53c 749d 9d3e 12b5 b5bc
00000080: a8f3 74bc 2799 573e 65f0 1abe e0ab b7bc
00000090: 532c 39bc 2be4 04bc 27cf 0bbd 8386 d43c
000000a0: 9583 893c 306c 633d c095 b13c 780b a0bd
000000b0: db50 c63d 423c d2bc 6ebe 9abd 6c93 1d3e
000000c0: a61f 83bc 1145 a63d e233 b2bd a90b c0bd
000000d0: e216 7bbd 681d 6cbc 4edc 4b3d e1de 9b3d
000000e0: 1210 3c3d e39f ecbd cdcb e1bc 0645 2a3d
000000f0: e1bb 09bc 4535 c93e 5089 09be 163a 93bd
00000100: b64b 00be b011 c9bd 90d7 e0bc d2c6 abbc
00000110: 6bd5 6a3a 8359 8e3e 11d8 aa3c a34c ef3a
00000120: 6f1a d0bc 673e e0bc 7116 413e 50f9 1dbc
00000130: e33e 11be 6a32 56be 9f02 133e fdc6 d1bd
00000140: 2272 683e c41e ac3e 212a c33d a2d4 c03c
00000150: 0f25 403e 7433 2d3e 53ac 6fbc b6b0 013e
00000160: 84e0 a1bc 45e7 263e 66f6 f6bd 152c 60be
00000170: b467 de3d ee72 9a3e 5c95 03be e3e1 323e
00000180: 8493 63bd 49d9 5e3e cbe2 2a3e b42f 1e3e
00000190: ccfe 4f3c dae1 be3e 77ce 923d 7dd0 61be
000001a0: 1130 903d 5fbf b8bd 6589 96bc e5f0 4cbe
000001b0: d832 e63c dab0 4d3d 1d76 2cbd 7e31 52bd
000001c0: 90e4 99bd 1c4d 84bd 9a4f 48bc 4e10 d63b
000001d0: a218 2d3e e61e fdbb d6b9 ed3d 4fcb 713d
000001e0: 9bac 0a3e 2aac 4ebc 01b6 063e 6064 19bd
000001f0: a082 b9bd e299 953d 62c7 f4bd e7a0 0cbd
-0.13499491 -0.07612938 0.01911839 0.29625866 -0.023602432 0.15192226 -0.061866265 0.016993009
-0.13548392 0.06772063 0.016677275 -0.010971246 0.098694935 -0.08410209 -0.07319247 -0.016297834
0.04455137 0.23801719 0.007861285 -0.014475039 -0.07238589 -0.083571 -0.050216757 -0.058689587
0.2992471 0.16846211 -0.093701765 0.02043233 0.016112776 0.020179812 0.3078419 -0.022181068
-0.01495067 0.21054517 -0.15130766 -0.022420824 -0.011302072 -0.00811104 -0.034133103 0.025943046
0.016786376 0.055523098 0.021677852 -0.078146875 0.09683391 -0.025663499 -0.07555853 0.15388268
-0.016006302 0.08118642 -0.08701302 -0.09377224 -0.06130112 -0.014411308 0.049770646 0.0761087
0.045913763 -0.115539335 -0.027563 0.041569732 -0.00840661 0.39298454 -0.13431287 -0.071888134
-0.12528881 -0.09817827 -0.027446538 -0.020968828 0.00089581934 0.27802667 0.020854982 0.0018257092
-0.02540323 -0.027373506 0.18856217 -0.00964196 -0.14184146 -0.20917669 0.14356469 -0.10243032
0.22699788 0.33617222 0.0952952 0.023538891 0.18764137 0.16914159 -0.014628488 0.12665066
-0.019760378 0.1629916 -0.120587155 -0.21891816 0.108596236 0.3016581 -0.12849945 0.17468981
-0.055560604 0.21762575 0.16688077 0.15447885 0.012695026 0.37281686 0.07168286 -0.22052188
0.07040418 -0.09020876 -0.018376062 -0.20013769 0.028100416 0.050217487 -0.04210483 -0.05131673
-0.07514298 -0.0646002 -0.01222601 0.0065327054 0.16903928 -0.0077246306 0.11607711 0.05903178
0.13542406 -0.012614289 0.13155366 -0.03744924 -0.09058118 0.073047414 -0.11952092 -0.034333136

fc2.weight f4 [24, 128]
00000000: 3740 29be b2e1 3bbe 25d7 c03d 4ea9 dc3e
00000010: dc99 6dbe b96e debe 72d6 52be 0b8e 53be
00000020: a36e 053f f8a0 bebe d404 a83c 519e 71bc
00000030: 08c8 803e 954b 82be dca1 c73e 80a5 adbe
00000040: 6767 dabe 45a4 cf3d b503 073e 6c6a 503d
00000050: b7a4 5d3e 3b06 64be e200 b3bc 092e 4fbe
00000060: bd57 dc3e 2c43 923e d888 23bd 5650 71be
00000070: 7ccb a73e e060 b9be 1a4c 083e adbf abbe
00000080: 515e 3a3e a23c de3e 666d eb3e 78d0 cebe
00000090: ed53 b33e e46e d5be c56b 9ebe 4401 c4be
000000a0: e85a ad3e 3651 773c 21f8 72be 4ecf 15be
000000b0: eafb c33e edea b4bd c642 c6be 6aff dabe
000000c0: 1ffb df3b 13b8 e7be 3d01 c9be 8a41 acbd
000000d0: 6098 bcbe 8e4d ae3e d934 d3be 26a1 523e
000000e0: 9874 85be 4b8b 90be b55a 28be 2fe6 003f
000000f0: fb58 79bd aada 2b3d 6c66 92bd ebe1 81be
00000100: 06da c8be 2fd4 9abe 19b8 713e 1983 063f
00000110: bb12 d03e bbe3 6abe 1eb9 8c3e 7c8f 72be
00000120: 1622 e4be 76c7 963c 5091 703e 560b 8f3d
00000130: 3191 d9bc 8370 c03e 6107 bf3e ef68 67be
00000140: c7a9 aa3e 93cd b53e 3249 3bbe 889d 6e3e
00000150: a18f d83e 5a82 6f3e 7d90 ce3d 1a8e a93c
00000160: 3f4c ab3e 2b42 c53e 65cb babe 8184 ffbe
00000170: b920 ea3e 5876 a4be 2638 da3e b8f9 98be
00000180: f4f4 26be 7cb6 333e 5953 88be 17d3 8ebe
00000190: 15eb a9be 5d44 3c3e 148a da3e cf77 c23e
000001a0: 9abf 87bd 2975 afbe 5178 48be 264a c3be
000001b0: 8d49 89be 8dbb 8dbe 8afd 00bc c614 bb3d
000001c0: 3032 d8bd c972 63bd 2173 57be 4667 67be
000001d0: 95e8 cdbe 4cce 80bd 54d1 c63e 4991 aabe
000001e0: 899d f7bd ab8d b23e 15e1 7ebe 3688 b2be
000001f0: b018 68be 72ec 4c3e 326c b3be 2a32 93bc
00000200: 645d af3e befd d7bd fe37 50be 07d0 8ebe
00000210: 7697 9bbd 7edb da3e 8ff5 9bbc 24d4 17be
00000220: c02b 343e 8db5 35be 4f60 b63d 995d d1bd
00000230: 14da 18be 71a5 59be 9076 6f3d f247 5fbe
00000240: ca3f 55be 444c 19be cd5b 64be c21f 4d3d
00000250: b9a7 cabc ca73 22be 8059 f53d 755f 81be
00000260: c052 44be 8a68 1d3e e837 38be 4544 28be
00000270: 76fd 8f3d 194f 34be ac3e f7bd 9d9c a8be
00000280: fb1f 86be 498e a33d ccc4 88be ff2a 3a3e
00000290: 66e3 23be 3aec b73e 6ce4 7dbe 1c4e 07be
000002a0: decb 84be 217e d83e 43f8 24be 7db2 b8bd
000002b0: a5dc 33be dbc1 3a3e 0760 adbd 24ab b43e
000002c0: 2d44 99bc 0289 ce3e c7e8 14be be98 b23e
000002d0: e8a1 9d3e 8501 3abe 8e44 cfbd 16b6 023f
000002e0: e6b1 093e 6f6f ed3d ee3e 85bd 3903 bfbe
000002f0: 4b65 6d3d 7640 cf3e d917 6abe 51f1 e63b
00000300: d810 b13e 1df5 7dbe 183a 1fbe 0714 54be
00000310: 155a caba bc08 a1be bfc5 7fbe 22eb ccbd
00000320: 762c 20bf 8b2d 1dbe a2d6 013f b72d c0bd
00000330: be47 83be 4597 b8be a137 93be 1c5d 4cbe
00000340: 1b15 a33e 2d22 c8bd 46f4 c53e db0f 913d
00000350: 6f58 ba3e 9abc bdbe e8ac 31be a74b 213e
00000360: fead 403e a432 713d 7951 cdbe 471a 3e3e
00000370: 68f5 cb3e b7c7 fb3e 61bb 97be a4f3 c63e
00000380: 5be6 493d 919e a0be 21fc e93e 4eae b63e
00000390: d107 8fbe c637 3f3d 6782 cfbe c758 60be
000003a0: ff43 cc3e 8c11 98be 17e9 b8be d5d0 a4bd
000003b0: 10d8 14be b5b5 a43e 545c 07be ef21 943d
000003c0: 6cb6 23be 2557 5fbe f310 8ebe 72cb 9b3e
000003d0: f6c2 45be fd5d 1fbd 34b1 f33e 645a 5bbe
000003e0: af8f 103e a1fb 8c3e 67c2 0ebe 9fc9 f3bd
000003f0: f542 343e 13dc 9b3e b96c 5cbe 7466 a2be
-0.16528402 -0.18347815 0.094160356 0.4309792 -0.23203224 -0.4344385 -0.20589617 -0.20659654
0.52121943 -0.37232184 0.020510115 -0.014747218 0.25152612 -0.2544829 0.38990676 -0.3391533
-0.42657015 0.10138754 0.13185008 0.05088274 0.21644865 -0.22268002 -0.021851007 -0.20232405
0.4303569 0.28566873 -0.039925426 -0.23565802 0.32772434 -0.36206722 0.1331028 -0.33544675
0.18200041 0.43405634 0.45981902 -0.40393424 0.35024968 -0.41686165 -0.30941597 -0.38282216
0.33858418 0.015095046 -0.23727466 -0.14629862 0.38278133 -0.08833871 -0.3872282 -0.4277299
0.006835356 -0.45257625 -0.39258757 -0.08410938 -0.36835003 0.34043545 -0.41251257 0.20569286
-0.26065516 -0.28231272 -0.16440852 0.5035123 -0.060875874 0.04195658 -0.07148442 -0.25367674
-0.3922884 -0.30240008 0.23605384 0.5254379 0.4063929 -0.22938435 0.27484983 -0.23687547
-0.44557256 0.018405657 0.23492932 0.06984584 -0.02655849 0.3758584 0.37310317 -0.22598623
0.33332655 0.35508403 -0.1828964 0.23302281 0.4229708 0.23389569 0.10086153 0.020697642
0.3345661 0.38527045 -0.36483303 -0.4990578 0.4572809 -0.3212154 0.42620963 -0.2987802
-0.1630438 0.17550081 -0.2662609 -0.27895424 -0.33187166 0.18385454 0.4268347 0.37982032
-0.06628342 -0.34269074 -0.19577147 -0.38142508 -0.26813927 -0.27682152 -0.007872948 0.091348216
-0.105564475 -0.05552939 -0.21040012 -0.2259799 -0.40216509 -0.06289348 0.3883158 -0.3331397
-0.12090594 0.3487371 -0.2489055 -0.34869546 -0.22665668 0.20012072 -0.35043484 -0.017968256
0.3425094 -0.10546444 -0.2033386 -0.27893087 -0.07597248 0.42745584 -0.01903799 -0.14827019
0.17594814 -0.17745037 0.08905088 -0.102229305 -0.1492694 -0.21254517 0.05846268 -0.21804789
-0.20825115 -0.149705 -0.22300644 0.050079115 -0.02473818 -0.15864483 0.119799614 -0.2526814
-0.19172192 0.1537191 -0.17990077 -0.16432293 0.07030766 -0.17608298 -0.120725006 -0.32931986
-0.26196274 0.07986123 -0.26712644 0.18180464 -0.16004714 0.35922414 -0.24794167 -0.1321339
-0.25936788 0.4228373 -0.1611033 -0.09018419 -0.17564638 0.18238012 -0.084655814 0.3528682
-0.018709267 0.40338904 -0.14541923 0.34882158 0.30787587 -0.18164642 -0.10120498 0.5105909
0.13446769 0.1159352 -0.065061435 -0.37307146 0.05795793 0.40478867 -0.2286066 0.00704781
0.34583163 -0.24800535 -0.15549505 -0.20710765 -0.0015438223 -0.31451976 -0.24977778 -0.100057855
-0.6256784 -0.15349405 0.5071813 -0.093837194 -0.25640672 -0.3605291 -0.2875338 -0.19957393
0.3185204 -0.097721435 0.38662928 0.07083102 0.36395594 -0.37057954 -0.17351115 0.15751515
0.18816373 0.058886185 -0.4010122 0.18564712 0.39835668 0.49175808 -0.29635146 0.38857758
0.04929195 -0.31370977 0.45700172 0.3567986 -0.2793565 0.04668405 -0.40529177 -0.21908866
0.39895627 -0.29700887 -0.36115333 -0.08047644 -0.14535546 0.3216988 -0.13218814 0.07233035
-0.15987557 -0.21810587 -0.27747306 0.30428654 -0.19312653 -0.038907994 0.47596133 -0.214212
0.14117311 0.27535728 -0.13941346 -0.119036905 0.17603667 0.3044134 -0.2152585 -0.3171879

fc2.bias f4 [24]
00000000: 9e46 e8bd 84d5 953e 9209 4dbe abcc 03be
00000010: 36be 12be 129a b1bc 013b 993c f898 063d
00000020: b838 e53e 008e b4be 0e4a a7bd f250 183f
00000030: 34bd d6bd 2115 09bf 637c 2e3e b4c6 21bf
00000040: dacd d4bd 49f6 5c3e dccd 8a3e 8445 533d
00000050: 928b 633e 6c2d 113f 8a7f aebe d27d fdbd
-0.11341594 0.29264462 -0.20023182 -0.12871043 -0.14330372 -0.021679912 0.018704893 0.032860726
0.44769835 -0.35264587 -0.08168422 0.5949851 -0.104853064 -0.53547865 0.17039637 -0.6319382
-0.103908256 0.21578325 0.27110183 0.051579967 0.2222121 0.56709933 -0.3408168 -0.12377514
