flask/models/keypoint_classifier/keypoint_classifier.tflite (tflite, 7524 bytes, 6 tensors)

arith.constant f4 [26, 10]
00000000: 5c5d 4ebf fb30 0bbe b660 28be 0d1e 313f
00000010: 7835 1bbf 2ebf d53e ba91 82bd d839 05bd
00000020: 4bc4 0d3e 1f9c 58bf 9b4f 133f 5814 9dbf
00000030: d580 363e 9722 a4bb 1e8f a93e fe8f 2abf
00000040: b9bf fcbe 2b1f f73e 9c24 0ebf cba9 4fbf
00000050: d96d f3bb 7274 88bf d012 903e 4621 0bbe
00000060: e3f1 3dbe 34f9 57be 0fd2 643f 6785 82be
00000070: 2086 91be 2fc9 79be 8055 c53d 76ca a13e
00000080: 765e 0d3f 632e d2be 33a3 923e 2a4c 8ebf
00000090: 568f 4abe 07ce 803e 491f efbc 5ca4 b5bf
000000a0: 93d4 c8bd 2cd0 cdbe 8308 603e 025d 9d3e
000000b0: 3672 aa3e 11b4 0fbf 6d7e 583d 4120 813e
000000c0: 66e4 abbd cb01 2ebf df40 c73d f395 05bf
000000d0: e102 ed3e 863a c03d 9888 053f 45a6 07bf
000000e0: fb75 83be a3cf d63e 6314 9abf 49a3 72be
000000f0: c774 afbe 7878 18bf b7e9 0b3f ec41 c1be
00000100: b817 9bbf 66c1 613f 86ce d43b 2629 febe
00000110: 43dc 293f 21c8 ed3e d3e9 39bf ef61 1ebe
00000120: 1702 60bf 5c47 59bf 68df 39bf b8aa 87bd
00000130: ce81 9a3e 7af0 1e3e b9cc 153f 6e08 983e
00000140: 3a1f 91bf 3a84 20bd ed00 9abe ba1b aa3e
00000150: 0b96 733e b53d d1be d5c2 9cbe 7a3e e23e
00000160: 2344 33bd 173e 57bf 346f beba 74ea 863c
00000170: e76e 51be 977c 2abf 2084 20bd 1eee d3be
00000180: dba9 c63e cc1e 1e3f 1f12 0f3f 1a3e 70be
00000190: f2e9 843e 671e f7bd 36a7 f2be 8c2c 5f3b
000001a0: 2825 c53b d8d8 eabd 6548 5fbf 067c 87bf
000001b0: 7e5b 3c3f 0468 8fbf 60ec 1f3e 49a1 fd3e
000001c0: 284c b53e 3284 29bf 6d12 49bf ad72 1dbf
000001d0: fb91 3e3e 7add c3bf 9d9a 0e3f 411f bcbe
000001e0: 3191 afbe 0ee3 7cbf 6582 c0be 2e5b 243f
000001f0: 484e 2a3e d807 26be 39c1 6e3c fa1f 6fbd
00000200: e769 29be 8711 e8be 5a8f bcbe 529c 34bf
00000210: 632a 33bf 7a75 153f 7bb7 96bd f514 fa3d
00000220: 5b5b 173c 6f62 3cbf b1ee 743d 4214 0fbf
00000230: 5ed2 bd3c 8775 d9bf 7389 893e a63f 213d
00000240: e66b a6be 357f 113e 3cce 593f af75 cdbe
00000250: 9086 9ebe 8cf8 f6bd 9e21 03be f88f ed3e
00000260: 8c46 d43c 51b9 3ebd 5f88 20bf 65d3 26bf
00000270: 91b9 c83d 3f71 c6bd 6f3d 86be cdbc 383f
00000280: 2a4e 33bf 716d ff3e aea9 643e f59c 75bf
00000290: f5ca c8be 8237 5cbf 7169 67bf 5c2d 2a3f
000002a0: 0794 373c a623 5c3e e363 263f 7f65 06bf
000002b0: 45af 4abf 49f0 41be 1dfe 873e e061 63bf
000002c0: bc34 a5be 9218 babf 701b 373e 2093 90bf
000002d0: 140d 29bf 8b45 45bf d93a abbe 320f 293f
000002e0: 71bd 31bd bd56 843d c0be 483e 6c98 d4be
000002f0: 9c9d 4cbe f7e0 b3be 3990 10bf d8f2 98be
00000300: 3dfd 38be a2ba 243f c1d0 d5be 3b3c 1f3e
00000310: c5c4 1b3d 3de6 8cbe ef93 0ebd 351d 04bf
00000320: 56b3 2a3f 1205 8cbe 48c3 b6ba 9e3c abbe
00000330: f6b9 883e 15f0 a5bf b0e9 dbbe 663a 12bf
00000340: cf87 34be 01e7 99bf f0b9 093f 01dc b63d
00000350: 9572 f83e f903 15bf a7d0 0f3f dd50 76bf
00000360: e472 80bf cef8 62be 08fb 11bf 4f1d 87bf
00000370: 454c 123f 5617 cfbd 4c65 31bf d375 e0be
00000380: 8686 473f 48c2 1dbf 6341 28bf 3e92 9dbe
00000390: 5b07 8fbf 1a4d 45be 2ac5 403e aa53 b43e
000003a0: dfe0 a8be 070e 40bd 587e abbd 4400 69bf
000003b0: 314a e4be e13d 1bbf c642 933e e504 72bf
000003c0: ad90 ccbf 17b4 e23c ea91 8c3e 03f6 0a3f
000003d0: d000 4fbd 562e 803e 9cc6 4ebf e521 fc3e
000003e0: 2b5e 49be 749f e8be 41a6 66bf e9c1 1f3f
000003f0: c393 ecbd 6fd6 0cbf 996b 73be cdd5 60bf
-0.80611205 -0.13592903 -0.16443142 0.6918648 -0.6062846 0.4174742 -0.063754514 -0.032525867
0.13844411 -0.8461322 0.57543343 -1.2271833 0.17822583 -0.0050090062 0.33117002 -0.66625965
-0.49365023 0.48265967 -0.5552461 -0.8111846 -0.0074288663 -1.0660536 0.28139353 -0.13586912
-0.18549304 -0.21091157 0.89383024 -0.25492403 -0.28422642 -0.24393152 0.096354485 0.31599778
0.5522226 -0.41051015 0.28640136 -1.1116993 -0.19781241 0.25157186 -0.029189723 -1.4190784
-0.0980617 -0.40197885 0.21878247 0.30735022 0.3329026 -0.56134135 0.052854944 0.2521992
-0.08393173 -0.67971486 0.0972917 -0.5218193 0.4629126 0.093861625 0.5216155 -0.5298808
-0.2567595 0.4195529 -1.2037472 -0.23695101 -0.34268782 -0.5955882 0.54653496 -0.37745607
-1.2116613 0.8818573 0.006494346 -0.4964077 0.6635172 0.4644175 -0.7262241 -0.15467046
-0.8750319 -0.8487451 -0.72606516 -0.06624359 0.30177158 0.15521422 0.58515507 0.2969393
-1.1337655 -0.0391886 -0.3007883 0.3322428 0.23787706 -0.4086739 -0.30617395 0.4418829
-0.043766152 -0.84079117 -0.0014528991 0.016469218 -0.20452462 -0.6659636 -0.039188504 -0.41392606
0.38801464 0.6176574 0.55887026 -0.2346119 0.25959736 -0.12066346 -0.47393197 0.0034053652
0.0060163923 -0.11467141 -0.8721984 -1.0584724 0.73577106 -1.1203618 0.15617514 0.49537113
0.35409665 -0.6621734 -0.7854374 -0.61503106 0.18610375 -1.5301964 0.5570467 -0.36742595
-0.3429046 -0.9878396 -0.37599483 0.6420163 0.16631424 -0.1621393 0.014572435 -0.058380105
-0.16544305 -0.45325872 -0.3682812 -0.70551026 -0.6998655 0.5838238 -0.07359215 0.122110285
0.009238089 -0.735877 0.059797946 -0.55890286 0.0231716 -1.6988991 0.26862678 0.03936734
-0.32504195 0.14208682 0.85080314 -0.40128848 -0.30962038 -0.12059125 -0.12805793 0.46398902
0.025912546 -0.04656345 -0.62708086 -0.6516631 0.09801019 -0.09689569 -0.26218745 0.7216309
-0.70041144 0.49888185 0.22330353 -0.9594262 -0.39217344 -0.860222 -0.90395266 0.6647546
0.011204726 0.21497974 0.64996165 -0.5249862 -0.7917369 -0.18939318 0.2656106 -0.8882122
-0.32266796 -1.4538748 0.1788156 -1.1294899 -0.6603558 -0.7705924 -0.33443335 0.6603881
-0.043393556 0.064618565 0.19604015 -0.4152254 -0.19981998 -0.35132572 -0.56470066 -0.29872775
-0.18065353 0.6434728 -0.4176083 0.1555032 0.03802945 -0.27519408 -0.03480905 -0.51607066
0.66679895 -0.27347618 -0.0013943696 -0.33444685 0.26704377 -1.2963892 -0.42951727 -0.5712036
-0.17629932 -1.2023622 0.53799343 0.08928681 0.4852492 -0.58209187 0.56177753 -0.9621714
-1.0035062 -0.22165224 -0.5702367 -1.0555819 0.5714763 -0.10111873 -0.6929519 -0.43839893
0.7793964 -0.61624575 -0.6572477 -0.30775636 -1.117412 -0.19267693 0.18825212 0.3522008
-0.32984063 -0.046888378 -0.083737075 -0.9101603 -0.44587854 -0.60641295 0.28761882 -0.9453872
-1.5981652 0.027673764 0.27455074 0.54281634 -0.050537884 0.25035352 -0.80771804 0.4924461
-0.19664828 -0.45434153 -0.90097433 0.6240526 -0.11551621 -0.550147 -0.23771514 -0.87826234

arith.constant1 f4 [10, 20]
00000000: 1c23 233f 0f61 8a3d 6d2a 853e b1db b1be
00000010: e312 4c3f 209f d1be dc55 eebe 2a8f 65bc
00000020: 60d3 c13f 6081 79bf 666e 8cbc 37e8 a8bd
00000030: 7c5e 69bf 29ab 1ebf d3d4 c43e ab07 3d3e
00000040: 0da7 763d 5586 17bf f269 b63e 6147 973f
00000050: 04ce 183e 8f20 c0bc f836 08be 7bf9 703d
00000060: 964d a4be e174 68be 9608 593f 74c6 183e
00000070: 8ce8 2f3e c721 c53e a1f9 a43f a33f 77be
00000080: 95c9 4b3f 300d b4bc e3fc ac3d ebf3 bdbd
00000090: 5f6d d2bc 96bb 663f b3fb 19bf 8cc2 0abe
000000a0: b562 5dbd 4039 123f 3dc6 b83d 41a0 8abe
000000b0: 4f0d 2e3c 2fe9 b13e 8711 5ebf 4573 29be
000000c0: 3f51 d8ba 01e3 f2bd 50e9 7e3f e3fa f3bc
000000d0: 002a 373e 21b6 3fbe d0e0 b3bc de5a dbbc
000000e0: 4528 84be af04 d4bd 52d7 2dbe 2c56 a03e
000000f0: c4ef e8bd caea 653f 374a c3be 9c8d ab3f
00000100: 02f8 bc3c 4f4c 693f e527 6b3e af55 343f
00000110: 1f81 b7be 5278 69bf 9c67 203f 7f14 a33f
00000120: 4e8f 64be e233 0f3f a05c 6b3f 9415 8fbe
00000130: 219d 6a3f 6ff3 4cbe 05ab 07be 4dd3 7bbd
00000140: 9bcc c03f ccc4 ff3e 6a26 52be ea61 b8be
00000150: 7593 633f ee52 1dbe 7164 363e 79af fd3d
00000160: 05ff 203f 6e33 dabe 4abc 9bbc 986e a73e
00000170: a849 43bf 0b94 a73c 9b9c 533f cf9b 2b3d
00000180: c57f f3bd ed77 5abe c531 483d 5dff 733f
00000190: c555 fcbe c586 413d e5f3 dabd a750 9abe
000001a0: 98f0 97be 7773 56be 55c6 a5bd 124a 863f
000001b0: 51e8 a73c 50b0 6a3d 95f9 6a3e c8e5 983e
000001c0: 5be9 b9bd 1419 4abe 787d cf3d 0b82 4ebe
000001d0: a527 b5be d15e 3fbc 12ed 1ebe 552d 1abe
000001e0: 9032 20be 5ad3 31be a6e6 833f fb81 02bf
000001f0: 28df 733f 8ca5 993f 518f f5be 9a87 873f
00000200: 12b8 03be 58ca f03d e1cc 7bbe 4ccb 783d
00000210: 90cf 673d 92f7 8c3f 8895 8cbe a29e 1e3f
00000220: b25b 0d3f f364 c33c d770 c53d a5f0 563f
00000230: 4939 6b3f a5a2 aa3f 4b28 92bd 38af bdbe
00000240: 8236 b23e 5979 523f 6e72 873f 5e6b 3c3d
00000250: f31b a03e 99db 8b3f 66e3 7d3e ea3b 693f
00000260: aceb b13e 2d5a 8d3e 5a7f 4d3d b2a5 9dbc
00000270: fd66 90bd 1406 c43e 696c e53e ecce 253e
00000280: 9de8 82be 25ee 423f 2baa e53e 1a18 063f
00000290: 5cc4 98be 6207 e4be 03fc 01bf f2ef 6d3f
000002a0: bf5e 3a3f 1eb6 133f d804 0d3f a417 0bbe
000002b0: c191 b83e 17ae cebd 1a2c d93d 580f 883f
000002c0: 888c 533f 2b60 2a3f b037 f83f 264d 0a3e
000002d0: 7d0b 4f3e 8ae8 24be 9c8c b53e ebca 193f
000002e0: 30c1 4b3f 21b1 c7be b948 1c3f e715 6a3e
000002f0: af4b bf3d eb78 463f 3c1e 823e 1fbf b0be
00000300: 5ae4 543f 3873 813e 585b a3bd 392a 2b3f
00000310: dcfb a13e 0007 753f 85e8 3f3f 15d3 82bd
0.6372545 0.06756794 0.2600893 -0.34737924 0.7971632 -0.40941715 -0.4654988 -0.014011184
1.5142632 -0.97463036 -0.017142486 -0.082474165 -0.91159797 -0.6197992 0.38443622 0.18459956
0.060217906 -0.5918935 0.35627705 1.1818658 0.14922339 -0.023453025 -0.13302219 0.058831673
-0.32090443 -0.22700836 0.84778726 0.14919454 0.17178553 0.38502333 1.2888681 -0.24145369
0.79604465 -0.021978945 0.08446672 -0.09275039 -0.025686918 0.90129983 -0.6014969 -0.13550776
-0.054049212 0.57118607 0.09022186 -0.2707539 0.01062329 0.34748217 -0.86745495 -0.16547878
-0.0016503705 -0.11859704 0.99574757 -0.029782718 0.17887115 -0.1872182 -0.021957785 -0.026776727
-0.25811973 -0.10352456 -0.1697667 0.31315744 -0.11373857 0.89811385 -0.3814256 1.3402591
0.023067478 0.9113206 0.22964437 0.7044324 -0.358407 -0.9119922 0.62658095 1.274063
-0.22320291 0.5593854 0.9193821 -0.2794615 0.9164601 -0.20014738 -0.13248833 -0.06148081
1.5062441 0.49954832 -0.20522466 -0.36012203 0.88896877 -0.15363666 0.17811753 0.123869844
0.6288913 -0.42617363 -0.019010682 0.32701564 -0.76284266 0.020456335 0.82660836 0.041896638
-0.118896045 -0.2133481 0.04887559 0.9531153 -0.49284187 0.047247667 -0.106910504 -0.30139658
-0.29675746 -0.20942484 -0.080944695 1.0491354 0.02049652 0.05729705 0.2294677 0.2986281
-0.09077712 -0.19736129 0.10131353 -0.20166795 -0.3538181 -0.011680321 -0.15520123 -0.15056355
-0.15644288 -0.1736578 1.0304763 -0.50979584 0.95262384 1.2003646 -0.47960904 1.0588257
-0.12863186 0.11757344 -0.24589874 0.060740754 0.05659443 1.1013052 -0.27457833 0.61960804
0.5521804 0.023851847 0.09640663 0.83960944 0.91884285 1.3330885 -0.071365915 -0.37047744
0.3480721 0.8221641 1.0581796 0.04600083 0.31271324 1.0926391 0.24793777 0.91107047
0.34750116 0.2760786 0.05017028 -0.019244049 -0.070508935 0.38285887 0.44809273 0.16192216
-0.25568095 0.7614463 0.4485639 0.52380526 -0.2983731 -0.44536883 -0.50775164 0.9294425
0.7280082 0.57699764 0.55085516 -0.13583237 0.360487 -0.10091799 0.10604115 1.0629683
0.8263631 0.6655299 1.9391994 0.13505992 0.20219226 -0.16104332 0.3545884 0.60075253
0.79591656 -0.39002326 0.61048466 0.22859918 0.093406074 0.77528256 0.25413692 -0.34520814
0.83160937 0.25283217 -0.07976407 0.668613 0.31637466 0.95713806 0.7496417 -0.06387917

arith.constant2 f4 [26]
00000000: 29a1 50be 2dbe 24be 5238 dbbe 50e8 143e
00000010: 19d0 2ebf 4531 f93b 7456 b5be 584d a6be
00000020: a83b d23e 7dbf 92bf ae47 fb3e be01 743f
00000030: d0e5 51be b527 1c3f daaf 64be dcc8 febe
00000040: 2c13 32bf e214 f63e 9bc1 a83d 3ffa 4d3e
00000050: 6b00 ce3e 9990 91be 2223 f33c 6624 7a3f
00000060: fa6f 21bf 0305 0e3f
-0.20373978 -0.16088171 -0.42816406 0.14541745 -0.6828628 0.0076047503 -0.3541752 -0.32480884
0.4106114 -1.1464688 0.49078125 0.9531516 -0.20497823 0.6099809 -0.22332707 -0.4976262
-0.69560504 0.48062807 0.08240052 0.20114993 0.40234694 -0.28430632 0.029679839 0.9771179
-0.6306149 0.554764

sequential_1/dense_1_2/BiasAdd/ReadVariableOp f4 [10]
00000000: d86d b23f df29 5a3f 2d75 063e 0c18 ac3e
00000010: 6d09 813f 2c64 d1be 662d e7bd 84a5 33be
00000020: 5f0d 043f 1b7a 90be
1.3939772 0.8522014 0.13130637 0.33612096 1.0081002 -0.40896738 -0.11287956 -0.17543608
0.515829 -0.2821816

sequential_1/dense_1/BiasAdd/ReadVariableOp f4 [20]
00000000: 9793 bc3e 97b3 33bf 0779 1c3e 69fe 88bf
00000010: c223 febd f088 b9bf 1296 843e 9e4b 68bf
00000020: 6367 643f 89fa 373f 0d38 0e3f 3a4f 7dbf
00000030: 9f02 203f 48be b7bf 2682 95be 6ac6 0d3f
00000040: a454 94bf 98b3 303f 94c8 523f 2b15 b93e
0.36831352 -0.7019591 0.15280543 -1.070264 -0.12409164 -1.4494915 0.25895745 -0.9074038
0.89220256 0.7186666 0.55554277 -0.98949015 0.62504 -1.4354944 -0.29200858 0.5538088
-1.158833 0.6902404 0.8233731 0.36148962

sequential_1/dense_1/MatMul f4 [20, 42]
00000000: e2dd 05be c076 9e3e d94b bd3e 9a08 9f3f
00000010: c8f3 8c3e 0690 223f 879d 8e3e c5b8 ce3e
00000020: a390 8e3e 3744 893e 3626 a93e d14d 2f3e
00000030: a701 30be a189 163e 2dbc c5be 2ebe b63d
00000040: c581 25bf 08e2 393d 50ff d63e 4334 1a3e
00000050: 775d bc3e 9c43 983d 8ed5 8d3d 31f0 8bbd
00000060: d361 8b3d 1de3 8ebd 3e48 61bc d037 463e
00000070: 4cbd d73e 478c 543d 8474 483f 5136 bebe
00000080: b4c7 9f3f 9c2e 8dbf 3c0b dbbe 4253 103e
00000090: ccdc aa3d d713 513e 943f 9a3e ce7f fabb
000000a0: 0233 9c3e 17d3 e0be f2cd 33be 7ced 7fbd
000000b0: fb63 5b3d f249 5bbf c827 2bbd c10d 2ebf
000000c0: b870 9cbe d896 98be 4364 cebe 6471 2fbe
000000d0: aa79 453f 1455 273d 1f37 243f aa89 62bc
000000e0: 1b3f 083f 3e52 393d 2025 d83e 39e2 8c3d
000000f0: b7d4 173f 1a5f ce3d 8c18 253f f70e d8ba
00000100: b9a3 ab3e a5b9 893d 8759 8e3e 5d71 c63d
00000110: 4e5a abbe 7ebf ef3d 3fac b0bd bb3a bfbd
00000120: 778d 1fbe d2db 26be e02a 09be 62e8 21be
00000130: ce68 debe a2c1 143e 407c 853e bf85 2cbe
00000140: 0663 e13e 52f0 3cbf 4eba 073f 4955 67bf
00000150: e42f ea3d 1077 753e 31e2 803e bf60 08bf
00000160: 5a97 243e e67b 903d 4be2 afbd 7ad7 803e
00000170: 708a 26bf b1f9 8f3e 07fd 323f 3165 633d
00000180: 95f9 b43e 4001 9dbc d1f4 9a3e 8361 efbd
00000190: 5759 713e 5bff 51be 0934 093f 3ca7 243e
000001a0: 8fa9 4abe a19b 303d 68df a1be 0f61 96bc
000001b0: b688 4cbe bb70 7c3d 0fdf 4bbe 477d 103e
000001c0: 5332 0dbf 9a01 963d 1bd8 06bf 88e6 37bd
000001d0: 02ac ffbe 6a19 603d ecac 9ebf 43ea 2b3e
000001e0: fb47 8bbf 2b8e cc3d 48b2 32bf 7ce5 0ebe
000001f0: 1a68 2bbf f8cd 95bd 9815 1fbd 0067 88bd
00000200: c6be 93be eada 55bf ec40 04be 359d 0ebf
00000210: 9564 00be 152b f8be 98d0 81be f923 33bf
00000220: 3201 c2be b1b9 5abe 6fbd fbbe 299e 56bd
00000230: e51b a0bd 5940 fd3c 4b5b a13c a892 ad3c
00000240: b8f4 9dbe cd93 40be efcb 02bf a6b4 4d3c
00000250: edd8 5cbd 4eff db3d ff55 6f3e aae8 c63d
00000260: 4fc1 253e ebab 63be 6459 e6be 6994 1f3c
00000270: 65df 44bd ee05 583e 0a59 563e 6d27 593e
00000280: 9cf8 7e3f 9279 3ebe c934 3a3c 6219 3a3d
00000290: ff36 b33e bb0a 8d3e 4bc4 483f d29b bb3e
000002a0: b0ab d73d 1001 b63d d765 173f 36f1 ae3f
000002b0: 6174 c03e 52a7 1c3f 00e8 783e 05c8 b43e
000002c0: a81a 823d 72a6 733e fb9c a53e 3183 5e3e
000002d0: e480 403d 5601 2b3e f59b c0bd 851d 4e3e
000002e0: 1c3b 5fbe 291b 3a3e 3497 853e 47e0 963d
000002f0: 4436 16bc e07a 2d3b 5d04 4dbe 2018 4ebe
00000300: 4c68 19be 3c86 b6be dbfe 06bf 1ad9 233d
00000310: 0522 0f3e bb25 1dbd 8f09 893d 8807 34bf
00000320: d0a0 87bd 839a 92bf e9ac 8cbf 7cca 4a3d
00000330: 277e 87be 30fe a4bd 959d 9abe bd9f f1bd
00000340: 4a2c 9abe c857 5cbe 001c b63b d2ed 7bbe
00000350: 11b7 b2be bb54 0bbe 458a 18be 7874 0d3d
00000360: 71b5 6fbe 9868 8e3c 4f60 bcbe 5aee 4d3c
00000370: 8f3f 4d3d 043b 2abd 6758 b53d 1365 92bc
00000380: 3834 8b3d f9df 953d 2ec9 e33d 5d90 bf3d
00000390: 4229 87be 110b f8bd 9865 373e 582f 8abd
000003a0: 2583 97bd 2f8d 55bc 5b0d 083d 2199 bb3c
000003b0: 4a71 d5be af74 39be ab62 aa3d abc3 43be
000003c0: e162 90be 64e2 87be ba91 e5be dd98 63be
000003d0: 89b7 abbe 50eb 83be 69f9 23bb 823c d8be
000003e0: 57d3 873d 54bb 0ebf c8ba 073e 6993 f6be
000003f0: d014 07be 0027 843e be74 b6bd f388 7b3e
-0.13072923 0.30949974 0.3697193 1.24245 0.2752974 0.6350101 0.2785456 0.40375343
0.27844724 0.26809856 0.33036965 0.17119528 -0.1718813 0.14700939 -0.3862013 0.08922993
-0.6465114 0.045381576 0.41991663 0.15058999 0.36790058 0.074347705 0.06925498 -0.06832922
0.06805768 -0.06976912 -0.013750134 0.19357228 0.4213661 0.05189159 0.7830279 -0.37150815
1.248282 -1.1029849 -0.4278201 0.1409426 0.08342895 0.20417725 0.3012663 -0.00764463
0.30507666 -0.4391105 -0.1755903 -0.062482342 0.053562146 -0.85659707 -0.041785985 -0.67989737
-0.30554748 -0.29802585 -0.4031087 -0.17133099 0.7713877 0.04085262 0.6414661 -0.013826767
0.5322129 0.045244448 0.42215824 0.06879086 0.5930895 0.10076733 0.6449058 -0.0016483952
0.33523348 0.06724862 0.2780268 0.09689591 -0.33467335 0.11706446 -0.08626603 -0.09337374
-0.15581308 -0.16294792 -0.13395262 -0.15811303 -0.43439335 0.1452699 0.26071358 -0.16847895
0.4402086 -0.738042 0.53018653 -0.9036451 0.11434916 0.239712 0.2517257 -0.5327262
0.16073361 0.07054882 -0.08588084 0.25164396 -0.6505499 0.28120187 0.6991734 0.055516426
0.35346666 -0.019165635 0.30264905 -0.11688521 0.23569237 -0.20507567 0.53595024 0.1607942
-0.19791244 0.04311717 -0.31615758 -0.018356828 -0.19974026 0.061630946 -0.19909309 0.1411029
-0.55154914 0.07324524 -0.526735 -0.044897586 -0.4993592 0.054711737 -1.2396522 0.16788583
-1.0881342 0.09988054 -0.69803286 -0.13954729 -0.6695572 -0.07314676 -0.038838953 -0.06660271
-0.28856486 -0.8353716 -0.1291539 -0.5570863 -0.12538369 -0.4847037 -0.25354457 -0.69976765
-0.37891537 -0.21359898 -0.49167964 -0.052396927 -0.078178205 0.030914472 0.019696852 0.021188095
-0.30850768 -0.18806382 -0.5109243 0.012555277 -0.053917814 0.10742055 0.23372649 0.09712346
0.16187023 -0.2223355 -0.44990075 0.009739974 -0.048064608 0.21096012 0.20932403 0.21206446
0.995981 -0.18601063 0.011365124 0.045434363 0.35002896 0.2754725 0.7842452 0.3664232
0.10530794 0.088869214 0.5913977 1.3667362 0.3758879 0.6119281 0.24307251 0.35308853
0.063527405 0.23793963 0.3234633 0.21729733 0.04699792 0.16699728 -0.094047464 0.20128448
-0.21799892 0.18174423 0.2609192 0.07366996 -0.009168211 0.0026470944 -0.20021196 -0.2012639
-0.14981192 -0.35649288 -0.5273263 0.040001966 0.13977821 -0.03836606 0.06691276 -0.7032399
-0.066224694 -1.1453403 -1.0990268 0.04950951 -0.26463434 -0.08056295 -0.3019835 -0.11798046
-0.30111915 -0.21517861 0.005557537 -0.2460244 -0.34905294 -0.13606541 -0.14896496 0.0345349
-0.23409058 0.017383859 -0.36792228 0.0125690345 0.050109442 -0.041560188 0.08854752 -0.017870462
0.06797069 0.0731811 0.11122356 0.09353707 -0.26398665 -0.12111486 0.17909849 -0.06747311
-0.07398061 -0.013034149 0.03321586 0.022900166 -0.41687995 -0.18110918 0.08319601 -0.1911761
-0.2820044 -0.2653991 -0.44837743 -0.22226281 -0.33538464 -0.25765467 -0.0025020486 -0.42233664
0.06632107 -0.5575459 0.13254845 -0.4815934 -0.13191533 0.25811005 -0.089089856 0.2456396
